pretrained_embeddings/disease_embedding.pt (torch, 111403 bytes, 1 tensors)

weight f4 [215, 128]
0	0x00000000	0.0
1	0x00000000	0.0
2	0x00000000	0.0
3	0x00000000	0.0
4	0x00000000	0.0
5	0x00000000	0.0
6	0x00000000	0.0
7	0x00000000	0.0
8	0x00000000	0.0
9	0x00000000	0.0
10	0x00000000	0.0
11	0x00000000	0.0
12	0x00000000	0.0
13	0x00000000	0.0
14	0x00000000	0.0
15	0x00000000	0.0
16	0x00000000	0.0
17	0x00000000	0.0
18	0x00000000	0.0
19	0x00000000	0.0
20	0x00000000	0.0
21	0x00000000	0.0
22	0x00000000	0.0
23	0x00000000	0.0
24	0x00000000	0.0
25	0x00000000	0.0
26	0x00000000	0.0
27	0x00000000	0.0
28	0x00000000	0.0
29	0x00000000	0.0
30	0x00000000	0.0
31	0x00000000	0.0
32	0x00000000	0.0
33	0x00000000	0.0
34	0x00000000	0.0
35	0x00000000	0.0
36	0x00000000	0.0
37	0x00000000	0.0
38	0x00000000	0.0
39	0x00000000	0.0
40	0x00000000	0.0
41	0x00000000	0.0
42	0x00000000	0.0
43	0x00000000	0.0
44	0x00000000	0.0
45	0x00000000	0.0
46	0x00000000	0.0
47	0x00000000	0.0
48	0x00000000	0.0
49	0x00000000	0.0
50	0x00000000	0.0
51	0x00000000	0.0
52	0x00000000	0.0
53	0x00000000	0.0
54	0x00000000	0.0
55	0x00000000	0.0
56	0x00000000	0.0
57	0x00000000	0.0
58	0x00000000	0.0
59	0x00000000	0.0
60	0x00000000	0.0
61	0x00000000	0.0
62	0x00000000	0.0
63	0x00000000	0.0
64	0x00000000	0.0
65	0x00000000	0.0
66	0x00000000	0.0
67	0x00000000	0.0
68	0x00000000	0.0
69	0x00000000	0.0
70	0x00000000	0.0
71	0x00000000	0.0
72	0x00000000	0.0
73	0x00000000	0.0
74	0x00000000	0.0
75	0x00000000	0.0
76	0x00000000	0.0
77	0x00000000	0.0
78	0x00000000	0.0
79	0x00000000	0.0
80	0x00000000	0.0
81	0x00000000	0.0
82	0x00000000	0.0
83	0x00000000	0.0
84	0x00000000	0.0
85	0x00000000	0.0
86	0x00000000	0.0
87	0x00000000	0.0
88	0x00000000	0.0
89	0x00000000	0.0
90	0x00000000	0.0
91	0x00000000	0.0
92	0x00000000	0.0
93	0x00000000	0.0
94	0x00000000	0.0
95	0x00000000	0.0
96	0x00000000	0.0
97	0x00000000	0.0
98	0x00000000	0.0
99	0x00000000	0.0
100	0x00000000	0.0
101	0x00000000	0.0
102	0x00000000	0.0
103	0x00000000	0.0
104	0x00000000	0.0
105	0x00000000	0.0
106	0x00000000	0.0
107	0x00000000	0.0
108	0x00000000	0.0
109	0x00000000	0.0
110	0x00000000	0.0
111	0x00000000	0.0
112	0x00000000	0.0
113	0x00000000	0.0
114	0x00000000	0.0
115	0x00000000	0.0
116	0x00000000	0.0
117	0x00000000	0.0
118	0x00000000	0.0
119	0x00000000	0.0
120	0x00000000	0.0
121	0x00000000	0.0
122	0x00000000	0.0
123	0x00000000	0.0
124	0x00000000	0.0
125	0x00000000	0.0
126	0x00000000	0.0
127	0x00000000	0.0
128	0xbfb611cc	-1.4224181
129	0xbebbfdd5	-0.36717096
130	0xbf509410	-0.81475925
131	0x3ddb6b6c	0.107138485
132	0x3f0ec208	0.5576482
133	0xc0035d7f	-2.0525815
134	0x3e63a285	0.22229965
135	0x3f91918d	1.1372544
136	0xbf9c7177	-1.2222127
137	0xbf1e5707	-0.61851543
138	0x3ee1fb21	0.4413691
139	0xbfa17a3f	-1.2615432
140	0x3f30fca0	0.69135475
141	0xbf5e7b19	-0.8690658
142	0x3e816399	0.252713
143	0xbf046eda	-0.51731646
144	0x3ec24958	0.37946582
145	0x3f99948e	1.199846
146	0xbfb8c313	-1.4434532
147	0xbf56b2ea	-0.8386675
148	0x3fb903e4	1.4454312
149	0x3ce4dbdc	0.027936868
150	0x3f85afbe	1.0444257
151	0x3eb5ad77	0.35483906
152	0xbe9920c3	-0.29907808
153	0x3c5bf0eb	0.013424139
154	0xbf462231	-0.7739592
155	0xbdba682f	-0.09101903
156	0x40117d4e	2.273273
157	0xbf42cdf2	-0.760955
158	0x3f59fce9	0.85151535
159	0x3f156712	0.583604
160	0xbccc13d0	-0.024911791
161	0xbf6c51a7	-0.9231209
162	0xbda4a552	-0.08039345
163	0x3f9de6c7	1.2336053
164	0x3fb7b75e	1.4352834
165	0xbecf2e4e	-0.40465015
166	0x3f9414ca	1.1568844
167	0x3f34c3d9	0.7061134
168	0x3f3e4e28	0.74338007
169	0x3f7fceea	0.999251
170	0x3eb9a11a	0.36255723
171	0x3f744e5c	0.95432067
172	0x3ec712fa	0.38881665
173	0xbdde8086	-0.10864358
174	0x3e94a39a	0.29031068
175	0xbe95ef88	-0.2928431
176	0x3f5801d3	0.84377784
177	0xbf0cefd6	-0.5505346
178	0x3ee354a4	0.44400513
179	0xbfc328e2	-1.5246851
180	0x3f40b671	0.75278383
181	0xbd99bda8	-0.07506877
182	0x3f845cd8	1.0340834
183	0xbd9a1118	-0.075227916
184	0x3f0ab5d2	0.54183686
185	0x3ea88a9b	0.32918248
186	0x3e4b929d	0.19880147
187	0x3f78ef13	0.972398
188	0xbdc908d1	-0.09816135
189	0xbfd4b6cb	-1.6618284
190	0x3e5f262d	0.21791907
191	0xbe09dd3d	-0.13463302
192	0x3f617dac	0.88082385
193	0x3f9c2ba2	1.2200816
194	0x3f68010c	0.906266
195	0xbf4b0063	-0.79297465
196	0xbe8b1606	-0.2716524
197	0xbec900a7	-0.3925831
198	0xbfa1341d	-1.2594029
199	0x3fcdbc90	1.607317
200	0x3fddc52b	1.7325796
201	0x3e08c070	0.13354659
202	0xbd8e451e	-0.06946777
203	0x3f90922a	1.1294606
204	0xbf8b6b9a	-1.0892212
205	0xbe51f02d	-0.20501776
206	0xbef2a77e	-0.4739341
207	0x3fa5ee7b	1.2963403
208	0x3ea6a1ac	0.3254522
209	0xbe51b6fb	-0.20479958
210	0x3f4d06f7	0.8008875
211	0xbd60abe8	-0.054851443
212	0x3fdf8860	1.7463493
213	0xbf169e41	-0.58835226
214	0x3f73b0d0	0.9519167
215	0x3ef1f69e	0.47258466
216	0xbea8f9d0	-0.33003092
217	0x3f598791	0.8497248
218	0xbeb148d9	-0.3462589
219	0x3f97da0c	1.1863418
220	0x3f41cca2	0.7570287
221	0x4030dc89	2.7634604
222	0x3fc60fd4	1.547358
223	0xbe5631d9	-0.20917453
224	0xbeea720c	-0.45790136
225	0xbf4f3c9f	-0.80951875
226	0xbc47ab24	-0.012186799
227	0xbdee3ce3	-0.11632707
228	0xbde3ef25	-0.111295976
229	0x3f026204	0.5093081
230	0xbf0f934b	-0.56084126
231	0xbfcc9a27	-1.5984544
232	0xbefd2ac3	-0.49446687
233	0x3fa3fc25	1.2811323
234	0x3e82613a	0.25464803
235	0xbfa3a625	-1.2785078
236	0x3f0291c9	0.510037
237	0xbc4ba813	-0.012430209
238	0xbf2c53dc	-0.6731546
239	0x3f8b5ed4	1.0888314
240	0x4021041c	2.5158758
241	0x3f8db04d	1.1069428
242	0xbee3b1cc	-0.44471586
243	0x3f46e7bd	0.77697355
244	0x3d97e02f	0.074158065
245	0x3f2aae98	0.6667266
246	0x3fa62fee	1.2983377
247	0xbf1e9d01	-0.6195832
248	0x3d4cc481	0.04999209
249	0x3e4e421d	0.20142408
250	0x3ff862ae	1.9405115
251	0x3d97afe5	0.07406596
252	0x3f39a30e	0.72514427
253	0xbdd7fb03	-0.105459236
254	0xbf9d0839	-1.2268134
255	0xbf37ad23	-0.7174856
