pretrained_embeddings/embedding.pt (torch, 170091 bytes, 1 tensors)

weight f4 [422, 100]
000000 da 3f 9f bf e4 42 3a 3f 32 17 85 be 6b 3b 4f 3f
       -1.2441361 0.72758317 -0.2599426 0.8095004
000010 94 c0 83 bf 2b 61 b9 3f 0d c8 f2 be 56 c0 f2 be
       -1.0293145 1.4482778 -0.47418252 -0.47412366
000020 4e 9b 1f 3e 04 7d d7 bf 0b 40 69 3f a0 55 a1 bf
       0.15586588 -1.6835027 0.91113347 -1.2604256
000030 e2 4b d1 3f c1 f9 d8 bf 87 a5 f1 3d ae d7 73 3f
       1.6351283 -1.6951219 0.1179915 0.95250976
000040 0b e5 a8 be a7 a3 82 bf ce ab 91 3f ff 8c c8 3f
       -0.32987246 -1.0206193 1.1380556 1.5668029
000050 1b 8f 14 3f d3 26 2c bf 32 c1 fe 3f 96 0b 6c be
       0.5803086 -0.6724674 1.9902709 -0.23051295
000060 20 80 35 3d 3a 13 eb be 5c e2 0b 3f 4a 52 08 3f
       0.044311643 -0.45913106 0.5464227 0.53250563
000070 aa 16 a7 bf 72 58 6c 3f ac 04 c9 3f 44 bd 43 3f
       -1.3053792 0.92322457 1.5704551 0.7646067
000080 61 d1 d5 bc a8 58 9a bf 7d 68 b6 3e f9 02 b6 bf
       -0.026100816 -1.2058306 0.35626593 -1.4219657
000090 cc b7 b7 3f b9 5f 4d bf 15 e5 c3 be ae 56 2d bf
       1.4352965 -0.80224186 -0.38260713 -0.6771039
0000a0 f6 51 7f 3e b3 3b 23 bd 35 5f 3c 3f 58 05 ea be
       0.2493361 -0.039851855 0.73582774 -0.45707202
0000b0 84 97 cf bf 93 12 85 bf 9e 5d 75 be ef 7b b8 3e
       -1.6218114 -1.0396293 -0.23961493 0.36032054
0000c0 cc a9 c1 3d 8e fe c0 3f f9 05 8f bf 9c bf 94 be
       0.09456214 1.5077684 -1.1173698 -0.29052436
0000d0 f6 a6 de bd 11 22 14 3e ee d2 53 bf 33 1e 4d bf
       -0.10871689 0.1446612 -0.8274373 -0.80124205
0000e0 1e fb 08 40 1b 06 26 3f ac b1 ec 3f d3 c3 2f 40
       2.140327 0.64853066 1.8491721 2.7463272
0000f0 87 c3 86 bf f4 3b af 3f f3 5a 19 3e 80 ee 34 3e
       -1.052842 1.3690171 0.149761 0.17669106
000100 2a e5 3d bd 46 6d b2 3f 62 40 5d 3e 00 8e da be
       -0.046361126 1.3939598 0.21606591 -0.42686462
000110 06 4d 84 bf a7 da ea 3e 9f 08 5b 3e be a7 1e bf
       -1.0336006 0.45869943 0.21390007 -0.61974704
000120 b3 2c 92 bf aa f6 b8 be 0f 10 c6 bf 68 41 25 3f
       -1.1419891 -0.3612569 -1.5473651 0.64552927
000130 3b db 12 bf d9 28 e4 bc 01 29 83 3f 85 f0 f1 bf
       -0.5736577 -0.027851509 1.0246888 -1.8901526
000140 bf f8 14 bd 34 ee fa 3e 41 7d 8d be 67 37 6e bf
       -0.036370035 0.4900986 -0.27634624 -0.9305329
000150 6a 31 08 bf 3e d5 84 bf 6e ba 6d 3b 7d 69 69 3f
       -0.532004 -1.0377576 0.003627445 0.9117659
000160 10 6e b9 bd f6 15 e3 be bf a7 77 be 68 76 c8 bf
       -0.09054196 -0.44352692 -0.24185084 -1.5661135
000170 e5 06 2e bf f6 0e 35 bf e9 e9 43 be bb fa 09 3f
       -0.6797927 -0.70725954 -0.19132198 0.5389821
000180 ee ec 02 40 17 d8 92 be bd 13 81 bf c9 5c 35 3f
       2.045711 -0.28680488 -1.0084149 0.70844704
000190 df f7 e8 3c a5 de 21 3f 26 0a 56 3d bc 15 55 3d
       0.028438507 0.63230354 0.052255772 0.05202268
0001a0 6a 47 48 3f 35 96 2d 3e 71 ca 0c 3f c0 74 19 40
       0.7823397 0.1695183 0.549964 2.3977509
0001b0 1d e0 74 3f 13 d9 71 3f e6 c1 0a 3f 22 17 52 be
       0.9565447 0.94471854 0.54202116 -0.20516637
0001c0 7d 3e 48 bf c9 62 50 3e 44 09 0c 3f 38 d3 7e bf
       -0.7822035 0.20350184 0.5470164 -0.99541044
0001d0 43 51 bd 3f c6 76 85 3e 03 05 d5 3f 33 d9 4b bf
       1.4790424 0.2606718 1.6642154 -0.79628295
0001e0 2e 66 54 bf 51 87 5b 3f 3f 55 0d 40 5c 7a eb bd
       -0.82968414 0.8575335 2.208328 -0.114979476
0001f0 6c c8 f8 3c b8 db 98 be 70 20 4b bf 03 f6 be 3d
       0.030369006 -0.29855132 -0.7934637 0.09324267
000200 e6 3b f2 be d6 10 9a 3e 6a 80 38 3f 60 b1 3f bf
       -0.47311324 0.3009097 0.72070944 -0.7488003
000210 33 77 3d 3f 16 f3 52 3d e2 b9 91 3e 13 c0 eb 3d
       0.7401001 0.051501356 0.2846213 0.115112446
000220 40 42 3f 3f 11 84 01 bf 9c c9 53 bf 29 44 9f be
       0.74710464 -0.5059214 -0.82729506 -0.3110669
000230 97 dc be 3f c1 ab 88 3c 65 66 8d 3d ce f0 00 c0
       1.4911069 0.016683461 0.06904296 -2.0146976
000240 31 31 2b bf 9e 93 b5 3e 94 5d 4f bf 5a 75 52 bf
       -0.66871935 0.35464185 -0.81002164 -0.82210314
000250 66 03 34 bd 68 16 35 bf 72 3c 78 3d 10 9a a8 bf
       -0.043948554 -0.70737314 0.06060452 -1.3172016
000260 65 51 df 3e e6 03 1c bf 37 a2 57 bd 12 8b 60 bf
       0.43616787 -0.6094345 -0.052644935 -0.87712204
000270 43 08 11 40 3c 99 07 bf 79 18 2e bf 02 37 a7 3f
       2.2661293 -0.5296819 -0.6800609 1.3063662
000280 e4 92 04 c0 97 1c 7c 3f 6f 18 d2 3d b9 26 76 3e
       -2.0714655 0.98481125 0.102585666 0.24038209
000290 b7 0c 85 bf 83 d9 c3 bf f1 70 04 bd 18 b6 9a 3d
       -1.0394505 -1.5300754 -0.03233427 0.07554263
0002a0 97 a4 ae 3e 4a ad be 3e 21 42 18 bf dd b2 30 bf
       0.34109947 0.37241584 -0.59475905 -0.69022924
0002b0 00 31 83 3f 13 15 89 3e a8 63 80 3e f1 f1 06 bf
       1.0249329 0.2677389 0.25076032 -0.52712923
0002c0 e1 9b 5e 3f 59 18 87 3f 52 07 58 be 91 cf f4 be
       0.869566 1.0554305 -0.21096542 -0.4781461
0002d0 7b ef 30 bd cb 54 44 be c4 69 ec 3e b6 18 82 3f
       -0.043197136 -0.19172971 0.46174443 1.0163791
0002e0 58 47 ce 3d f1 85 86 3f fb 00 50 3e cd 75 5a bf
       0.100722015 1.0509626 0.20312874 -0.85336
0002f0 b1 43 2d bb 90 63 89 bf ae 69 c5 3f 20 4a 59 be
       -0.0026438052 -1.0733509 1.5422876 -0.21219683
000300 fe 42 16 3e 37 34 1e 3f 0a bc 06 3e 64 de 55 3f
       0.14673993 0.61798424 0.13157669 0.83542466
000310 20 18 1b c0 22 a2 67 bf 5a c9 e4 3e e7 15 d1 3e
       -2.4233475 -0.9048177 0.4468487 0.40837023
000320 0d 20 a8 3e 8c 29 bb be 0e a2 46 bf 7b d2 20 bf
       0.32836953 -0.36555135 -0.77591026 -0.6282117
000330 8d 65 f8 3e 35 eb 48 bf 19 39 7a bf 7d 7a ab 3f
       0.48514977 -0.784839 -0.97743374 1.3396755
000340 69 7f 8b 3e b1 84 f4 be fe bf 63 3e 78 dc 0d bf
       0.27245644 -0.47757486 0.22241208 -0.55414534
000350 70 80 73 bf 16 89 ef bf 7d a3 b5 3f a7 65 15 3f
       -0.95117855 -1.871371 1.4190518 0.58358234
000360 e1 6d a2 3e d6 7d c6 3e 4d 45 f1 bf 64 dd bf 3e
       0.31724456 0.3876788 -1.8849274 0.37473595
000370 19 29 c5 be d5 b2 f9 3e 16 7e 20 40 9b 2b b8 3f
       -0.38507918 0.4876925 2.5076957 1.4388307
000380 28 a1 74 be 77 37 8a 3f c0 9f 7f be c6 e1 8f be
       -0.23889601 1.0798177 -0.24963284 -0.2810194
000390 ee a6 5a 3e 47 74 dc 3f 37 b6 63 3f 49 53 47 bf
       0.21352741 1.7222985 0.8894991 -0.7786146
0003a0 2f ba 8a 3f 23 da f7 3b 4f da 58 bf 68 9d fd be
       1.0838069 0.0075638457 -0.8470811 -0.49534154
0003b0 c8 df ef be 51 d1 02 c0 87 db a7 bf 71 d3 ad 3e
       -0.4685042 -2.0440257 -1.311387 0.3395038
0003c0 0b 1d 9d bf 3d 03 ae 3f ba 7d 57 3f f9 bd 22 bf
       -1.2274488 1.3594738 0.8417622 -0.63571125
0003d0 4e be ca 3e b2 01 66 3f 4b 12 0a c0 7f 3a fd bf
       0.39598316 0.89846337 -2.1573665 -1.9783477
0003e0 37 99 00 c0 67 6a 46 3f 42 7d 8f 3f 0d aa 94 3e
       -2.0093515 0.7750611 1.1210101 0.29035988
0003f0 36 56 81 bf 00 91 94 bf cc a8 a7 be db 9f 48 bf
       -1.0104434 -1.160675 -0.3274597 -0.7836892
