pretrained_embeddings/instacart_embedding.pt (torch, 71979 bytes, 1 tensors)

weight f4 [138, 128]
0.0 0.0 0.0 0.0 0.0 0.0 0.0 0.0
0.0 0.0 0.0 0.0 0.0 0.0 0.0 0.0
0.0 0.0 0.0 0.0 0.0 0.0 0.0 0.0
0.0 0.0 0.0 0.0 0.0 0.0 0.0 0.0
0.0 0.0 0.0 0.0 0.0 0.0 0.0 0.0
0.0 0.0 0.0 0.0 0.0 0.0 0.0 0.0
0.0 0.0 0.0 0.0 0.0 0.0 0.0 0.0
0.0 0.0 0.0 0.0 0.0 0.0 0.0 0.0
0.0 0.0 0.0 0.0 0.0 0.0 0.0 0.0
0.0 0.0 0.0 0.0 0.0 0.0 0.0 0.0
0.0 0.0 0.0 0.0 0.0 0.0 0.0 0.0
0.0 0.0 0.0 0.0 0.0 0.0 0.0 0.0
0.0 0.0 0.0 0.0 0.0 0.0 0.0 0.0
0.0 0.0 0.0 0.0 0.0 0.0 0.0 0.0
0.0 0.0 0.0 0.0 0.0 0.0 0.0 0.0
0.0 0.0 0.0 0.0 0.0 0.0 0.0 0.0
-0.8421038 1.1544725 -0.43405953 0.54816407 -0.19305784 -0.22539398 0.17539008 0.22008051
0.380767 0.51155365 0.06667254 0.0788155 -0.06368031 1.3459067 -0.3867713 -0.104337804
-0.73994756 -1.1173218 1.0932803 0.5104786 -0.18543036 -0.15206023 0.070272736 -0.29076448
-0.22715153 -0.00047822896 0.4868353 0.2205723 1.1019074 -0.13626052 1.1590453 0.035672426
-0.43671116 -0.7646341 -1.5745348 0.9256697 0.9812697 0.3617867 0.43026245 0.404616
-0.66817504 -1.5406691 0.27861255 -0.106888816 -0.07900827 -0.18839483 0.60099983 0.69576794
0.49552608 0.015927812 1.4407654 -0.60403055 0.043790866 0.6553001 0.542141 0.6430278
0.026773112 -0.2795229 0.55927587 -0.83064365 1.164671 0.34816948 -0.25739145 -0.07198527
0.23891892 0.0020559959 0.8499438 -1.5984213 0.6177055 0.68257505 0.4388864 -0.32229412
0.5740839 0.08820065 -0.5435395 -0.0060129496 1.0703387 -0.030922327 0.99595624 1.0410475
-0.49471295 -0.03843817 -0.10151118 -0.6187458 -0.14912997 -0.5011009 -0.31075796 1.1714892
0.84400827 0.09292222 -1.3319635 0.20752776 0.7566084 -0.037586123 1.3531151 -0.22629498
-0.54027575 -0.22089659 1.0077107 0.48462757 0.5150048 0.5558346 0.15377551 1.0582266
0.55861926 -2.1133888 -0.3097662 -1.228303 0.9374528 -0.3953023 -1.5742528 -1.3222345
0.19476092 0.33443052 0.6798469 0.23732725 1.4749722 -0.061472528 -1.373088 0.5550026
-0.016447775 1.2229058 0.56769913 0.89898217 -1.2599292 -0.08259421 0.059431463 -0.18653004
00000000: 0000 0000 0000 0000 0000 0000 0000 0000
00000010: 0000 0000 0000 0000 0000 0000 0000 0000
00000020: 0000 0000 0000 0000 0000 0000 0000 0000
00000030: 0000 0000 0000 0000 0000 0000 0000 0000
00000040: 0000 0000 0000 0000 0000 0000 0000 0000
00000050: 0000 0000 0000 0000 0000 0000 0000 0000
00000060: 0000 0000 0000 0000 0000 0000 0000 0000
00000070: 0000 0000 0000 0000 0000 0000 0000 0000
00000080: 0000 0000 0000 0000 0000 0000 0000 0000
00000090: 0000 0000 0000 0000 0000 0000 0000 0000
000000a0: 0000 0000 0000 0000 0000 0000 0000 0000
000000b0: 0000 0000 0000 0000 0000 0000 0000 0000
000000c0: 0000 0000 0000 0000 0000 0000 0000 0000
000000d0: 0000 0000 0000 0000 0000 0000 0000 0000
000000e0: 0000 0000 0000 0000 0000 0000 0000 0000
000000f0: 0000 0000 0000 0000 0000 0000 0000 0000
00000100: 0000 0000 0000 0000 0000 0000 0000 0000
00000110: 0000 0000 0000 0000 0000 0000 0000 0000
00000120: 0000 0000 0000 0000 0000 0000 0000 0000
00000130: 0000 0000 0000 0000 0000 0000 0000 0000
00000140: 0000 0000 0000 0000 0000 0000 0000 0000
00000150: 0000 0000 0000 0000 0000 0000 0000 0000
00000160: 0000 0000 0000 0000 0000 0000 0000 0000
00000170: 0000 0000 0000 0000 0000 0000 0000 0000
00000180: 0000 0000 0000 0000 0000 0000 0000 0000
00000190: 0000 0000 0000 0000 0000 0000 0000 0000
000001a0: 0000 0000 0000 0000 0000 0000 0000 0000
000001b0: 0000 0000 0000 0000 0000 0000 0000 0000
000001c0: 0000 0000 0000 0000 0000 0000 0000 0000
000001d0: 0000 0000 0000 0000 0000 0000 0000 0000
000001e0: 0000 0000 0000 0000 0000 0000 0000 0000
000001f0: 0000 0000 0000 0000 0000 0000 0000 0000
00000200: 1d94 57bf c1c5 933f 0d3d debe 7b54 0c3f
00000210: f4b0 45be aecd 66be 7599 333e c95c 613e
00000220: e4f3 c23e 2ef5 023f 9d8b 883d 056a a13d
00000230: d36a 82bd ac46 ac3f e306 c6be 0faf d5bd
00000240: 346d 3dbf 6704 8fbf 9cf0 8b3f baae 023f
00000250: 75e1 3dbe adb5 1bbe 27eb 8f3d 15df 94be
00000260: 699a 68be ceba fab9 7a42 f93e b4dd 613e
00000270: 4d0b 8d3f e187 0bbe 995b 943f 401d 123d
00000280: 9b98 dfbe 0fbf 43bf 5b8a c9bf b1f8 6c3f
00000290: 7e34 7b3f 1b3c b93e 5c4b dc3e d429 cf3e
000002a0: 850d 2bbf a534 c5bf 4ea6 8e3e 86e8 dabd
000002b0: 16cf a1bd 93ea 40be 20db 193f d91d 323f
000002c0: 98b5 fd3e 0b7b 823c 006b b83f bfa1 1abf
000002d0: 0d5e 333d bfc1 273f c1c9 0a3f 789d 243f
000002e0: 4953 db3c a01d 8fbe b42c 0f3f 10a5 54bf
000002f0: f013 953f 4543 b23e d0c8 83be 036d 93bd
00000300: 29a7 743e e3bd 063b eb95 593f 1299 ccbf
00000310: f321 1e3f 3dbd 2e3f b8b5 e03e bc03 a5be
00000320: 2af7 123f 8ba2 b43d 6825 0bbf 4708 c5bb
00000330: dc00 893f d250 fdbc fdf6 7e3f 0b41 853f
00000340: 044b fdbe 5871 1dbd 18e5 cfbd 2066 1ebf
00000350: 87b5 18be 2648 00bf ab1b 9fbe 5cf3 953f
00000360: ed10 583f 014e be3d c87d aabf 2882 543e
00000370: 17b1 413f e8f3 19bd e032 ad3f dfb9 67be
00000380: 834f 0abf b732 62be aafc 803f 1b21 f83e
00000390: 5bd7 033f 2d4b 0e3f 5477 1d3e f873 873f
000003a0: ac01 0f3f c341 07c0 ad99 9ebe 0839 9dbf
000003b0: e8fc 6f3f 1065 cabe 1e81 c9bf fb3e a9bf
000003c0: 686f 473e 7a3a ab3e 720a 2e3f ea05 733e
000003d0: e4cb bc3f 9eca 7bbd 59c1 afbf a714 0e3f
000003e0: 7cbd 86bc 2d88 9c3f bb54 113f b223 663f
000003f0: 5c45 a1bf 2727 a9bd 686e 733d bb01 3fbe
